myproject/detection/dnn_model (1).pth (torch, 43420 bytes, 6 tensors)

fc1.weight f4 [128, 13]
0	0xbe97a71b	-0.2961968
1	0xbe32b959	-0.17453517
2	0xbcae0352	-0.021241818
3	0x3e5ee63c	0.21767515
4	0xbdf11c7f	-0.11773013
5	0x3df696ec	0.12040505
6	0x3dda35a5	0.10654763
7	0xbc67fe9c	-0.014159825
8	0x3dd2a7b4	0.10285893
9	0x3e34666e	0.17617199
10	0xbd2ad628	-0.04170814
11	0xbd8743c8	-0.06604725
12	0x3c39d2f6	0.011341801
13	0x3d5665de	0.052343242
14	0xbd68c186	-0.056825183
15	0x3e8cdee4	0.27513802
16	0x3e1188f6	0.14212403
17	0xbe343163	-0.17596965
18	0xbe5c2f48	-0.21502411
19	0xbdaf8967	-0.08571129
20	0x3e58fdba	0.21190539
21	0xbdb9d8a6	-0.090745255
22	0x3e893be9	0.2680352
23	0x3e5b319c	0.21405643
24	0xbe449f52	-0.19201401
25	0x3d8b798e	0.06810294
26	0x3e1f51a9	0.15558495
27	0x3e64e5c1	0.22353269
28	0xbe0c1bfa	-0.13682547
29	0x3abce78a	0.0014412266
30	0x3eaa3d66	0.33249968
31	0x3e633b69	0.22190632
32	0x3d6e6e65	0.05821075
33	0xbe022e75	-0.12713034
34	0x3e9be0a2	0.3044482
35	0xbe6d4ce4	-0.23173863
36	0xbe1e9666	-0.1548706
37	0xbdf4ea68	-0.11958772
38	0x3d6f7728	0.058463246
39	0x3cf872ac	0.030328117
40	0x3c97c113	0.018524682
41	0xbe6565a5	-0.22402056
42	0x3d6763c4	0.05649163
43	0xbd0cb88e	-0.034355693
44	0xbe6ec79d	-0.23318334
45	0xbe749126	-0.23883495
46	0x3e3f19b7	0.18662153
47	0xbe6ec71b	-0.2331814
48	0x3d8c914f	0.06863653
49	0x3e88accd	0.26694337
50	0x3c533c8d	0.012892854
51	0xbe2e2ebd	-0.17010017
52	0xbea2594a	-0.31708747
53	0xbdd36352	-0.10321678
54	0x3e8b7f29	0.27245453
55	0xbdb19dc9	-0.08672673
56	0x3e7ce4a6	0.24696597
57	0xbdbf80f0	-0.09350765
58	0xbe8c1df9	-0.27366617
59	0xbe056408	-0.1302644
60	0x3e105c38	0.14097679
61	0xbc2843ff	-0.010270118
62	0xbe546ae8	-0.20743906
63	0x3db0ca4b	0.08632334
64	0x3e935020	0.28772068
65	0xbe84ce02	-0.2593842
66	0xbe2ba148	-0.16760743
67	0xbe68c5c0	-0.22731686
68	0xbdf377b1	-0.11888064
69	0xbdbdf55f	-0.092753164
70	0x3d2cd32a	0.04219357
71	0x3e7208e1	0.236362
72	0x3d53f745	0.051749486
73	0x3e05858b	0.13039224
74	0xbdb51dfc	-0.0884361
75	0xbe881504	-0.26578534
76	0x3e3a0711	0.18166758
77	0xbe8c6661	-0.2742186
78	0xbe46f1b7	-0.19428144
79	0x3b5d12ba	0.0033733086
80	0xbe172b91	-0.14762713
81	0x3e0dec9f	0.13859795
82	0xbeba59ac	-0.3639654
83	0x3e5b5ae0	0.21421385
84	0xbd5f88e9	-0.054573927
85	0xbd86476d	-0.06556592
86	0xbe76d8b4	-0.24106103
87	0x3da9c058	0.0828864
88	0xbe0c9d5f	-0.13731907
89	0x3e0fb5d9	0.14034213
90	0x3d756647	0.059911992
91	0xbe8a2790	-0.2698331
92	0xbe436049	-0.19079699
93	0xbe7798ea	-0.24179426
94	0xbe6d9b2d	-0.23203726
95	0xbd318f26	-0.043349408
96	0xbe08c0a8	-0.13354743
97	0xbe5ec645	-0.21755321
98	0x3e1dd9c5	0.15415104
99	0xbe14b3d6	-0.14521727
100	0xbe5e0c4c	-0.21684378
101	0x3e34f6d1	0.17672278
102	0x3e7319d1	0.23740317
103	0xbe8a5a19	-0.27021864
104	0x3d95e22f	0.07318532
105	0xbc32d94c	-0.010916065
106	0xbdb70c27	-0.08937865
107	0xbd30700e	-0.043075614
108	0x3c7bdd13	0.015372532
109	0x3e6b5c45	0.22984417
110	0x3e40d74e	0.18832132
111	0x3dd60ed8	0.1045205
112	0xbe0d1395	-0.13777001
113	0xbe139f87	-0.14416324
114	0xbe750115	-0.23926194
115	0x3e567418	0.20942724
116	0xbe842e0d	-0.25816384
117	0x3e3012d5	0.17194684
118	0x3dd45501	0.10367776
119	0xbe86c8ff	-0.26325223
120	0x3e40f6dc	0.1884417
121	0xbe471ca1	-0.19444515
122	0x3e47664d	0.19472618
123	0x3e7584a0	0.23976374
124	0x3e6ae892	0.22940281
125	0x3dadb322	0.084814325
126	0x3e4423b2	0.19154242
127	0x3dc0a2f4	0.09406081
128	0xbdb66670	-0.08906257
129	0xbd16cbb5	-0.036815364
130	0xbe902e1a	-0.28160173
131	0x3e90cbc5	0.28280464
132	0xbe015184	-0.12628752
133	0xbcfbbcae	-0.030729618
134	0x3ddc30d0	0.10751498
135	0x3e0213a2	0.12702802
136	0xbe435fe2	-0.19079545
137	0xbc521d7f	-0.012824415
138	0x3e89a4d3	0.26883563
139	0x3e3cff9a	0.1845688
140	0xbe1c9016	-0.1528934
141	0xbdd28f5b	-0.10281249
142	0xbda0f4ff	-0.07859229
143	0x3de38c72	0.11110772
144	0xbe462b6a	-0.19352499
145	0x3da30701	0.0796032
146	0x3e841040	0.25793648
147	0x3d01d759	0.031699512
148	0x3d8ae701	0.06782342
149	0x3e45ab77	0.1930369
150	0x3df67924	0.120348245
151	0xbd9eebb7	-0.07759803
152	0xbe0c8eeb	-0.13726394
153	0xbe41050f	-0.18849586
154	0x3d961491	0.073281415
155	0xbe44176c	-0.1914956
156	0x3e07ed26	0.13274059
157	0x3a20f835	0.00061405014
158	0xbe093ef1	-0.13402916
159	0xbd476e62	-0.048689254
160	0xbe86517c	-0.26234043
161	0xbd22f8a4	-0.039787903
162	0x3c37eeb6	0.011226347
163	0xbe6952cd	-0.22785492
164	0x3e325e8c	0.1741888
165	0xbde31a8e	-0.11089049
166	0xbe428777	-0.18996988
167	0xbe6e2e23	-0.23259787
168	0x3de1d014	0.11026016
169	0xbae46a5f	-0.0017426721
170	0xbe34a2cc	-0.17640227
171	0x3e493910	0.19650674
172	0xbdf3e825	-0.119095124
173	0x3dccbb78	0.09996694
174	0xbe6a21a0	-0.2286439
175	0xbe7dfa6c	-0.2480256
176	0x3e174059	0.1477064
177	0x3dffeabf	0.12495946
178	0x3e246736	0.16054997
179	0x3e0332c3	0.12812333
180	0xbe838891	-0.2569013
181	0x3d7dc2c4	0.06195332
182	0xbd7ffd1e	-0.06249725
183	0x3d96e174	0.073672205
184	0xbe3bdef5	-0.1834677
185	0x3e3f00a9	0.18652596
186	0x3d0bda23	0.03414358
187	0x3d8532ff	0.06503867
188	0xbda2a57f	-0.07941722
189	0x3deaaed6	0.114591286
190	0xbc91e108	-0.017807499
191	0x3dde891a	0.10865994
192	0xbe5188e2	-0.20462373
193	0xbdeaf479	-0.11472411
194	0x3e500011	0.20312525
195	0x3e8fd27b	0.2809027
196	0x3da3a5db	0.07990619
197	0x3c8bdf45	0.017074237
198	0xbe625e7a	-0.22106352
199	0xbe528020	-0.20556688
200	0xbdb0068b	-0.08594998
201	0xbe9899e4	-0.2980491
202	0xbe6c48ed	-0.23074694
203	0xbcd64e35	-0.026160339
204	0xbd2d7fb2	-0.042358108
205	0x3e8b8883	0.27252588
206	0x3e13b2b5	0.1442364
207	0x3c453123	0.012035641
208	0x3e46bcb7	0.19407926
209	0x3da3ccd7	0.079980545
210	0x3da2dc9f	0.079522364
211	0xbd9261f1	-0.07147587
212	0x3d144f10	0.036208212
213	0x3d914092	0.07092394
214	0xbe886ac3	-0.26643953
215	0x3e835f85	0.25658813
216	0xbe7a0f31	-0.24419858
217	0x3cd60c95	0.026129046
218	0xbe4f70c4	-0.2025786
219	0xbbcac32e	-0.006187818
220	0x3db8b49b	0.09018823
221	0x3e613a9c	0.21995014
222	0xbdc011e8	-0.09378415
223	0x3dba34d1	0.09092105
224	0x3e7c0ad2	0.24613503
225	0x3e682990	0.22672105
226	0x3dc30e59	0.09524221
227	0x3e762d6c	0.24040765
228	0x3dc15e9d	0.09441874
229	0xbe2e01c8	-0.16992867
230	0x3bee4d5f	0.007272407
231	0x3e1ff505	0.15620811
232	0x3d845587	0.064616255
233	0x3e4a6b23	0.19767432
234	0x3e30026c	0.17188424
235	0xbe334b0e	-0.175091
236	0x3d142081	0.03616381
237	0xbe4a348c	-0.19746608
238	0x3d266ba8	0.040630013
239	0x3dc47c93	0.09594073
240	0x3e6c855b	0.23097746
241	0x3d8c2774	0.068434626
242	0xbe5611b0	-0.20905185
243	0xbe5735b1	-0.21016575
244	0xbd99d96f	-0.07512175
245	0x3d1975ef	0.037465986
246	0x3e139698	0.14412916
247	0x3dc3a7ff	0.09553527
248	0xbe895115	-0.26819673
249	0xbb15705d	-0.002280257
250	0xbe1f1f4d	-0.15539284
251	0x3dc0d6b9	0.09415955
252	0xbd94314a	-0.07235964
253	0xbe64f199	-0.22357787
254	0xbe20f271	-0.15717484
255	0xbe92c85f	-0.28668496

fc1.bias f4 [128]
0	0xbc203902	-0.009779217
1	0xbc7bee5d	-0.015376654
2	0xbe5b9efa	-0.21447363
3	0xbdf22b7a	-0.11824699
4	0x3d6ebf83	0.05828811
5	0xbd217597	-0.039418783
6	0x3e525f83	0.20544247
7	0xbd240220	-0.04004109
8	0x3e2d7a5e	0.1694121
9	0xbe95c79c	-0.29253852
10	0x3dc7cd77	0.09755986
11	0xbd3876ac	-0.04503505
12	0x3e07a7ff	0.13247679
13	0x3e74cb6d	0.23905726
14	0x3e59c2e7	0.21265756
15	0x3e169698	0.14705884
16	0xbd6e42a5	-0.058169026
17	0xbe03e24f	-0.12879299
18	0x3de49cf5	0.1116275
19	0x3cca920d	0.024727846
20	0xbdfa0dbd	-0.122096516
21	0xbc8503de	-0.016237196
22	0xbdb0bd6c	-0.08629879
23	0x3e1d4536	0.15358433
24	0xbcac5d04	-0.021040447
25	0x3dfa106a	0.12210162
26	0x3e615395	0.2200454
27	0x3d91dcd5	0.071221985
28	0xbe2e5bab	-0.17027156
29	0x3e78f09a	0.24310532
30	0x3e69323f	0.22773074
31	0x3bbce4dc	0.005764587
32	0xbe87fd30	-0.26560354
33	0xbe36a804	-0.1783753
34	0xbdf43542	-0.119242206
35	0xbc9e907c	-0.019356005
36	0x3d3130fd	0.04325961
37	0xbe23b855	-0.15988286
38	0xbe0f050c	-0.13966769
39	0x3e76af64	0.24090344
40	0xbc8fd56a	-0.017557818
41	0x3d01a9cd	0.031656075
42	0xbd916502	-0.07099344
43	0xbe8cb01d	-0.27478114
44	0xbe8b60c3	-0.2722226
45	0xbe876161	-0.26441482
46	0x3e8bd28a	0.27309066
47	0x3de5f01b	0.11227437
48	0x3dbd015e	0.092287764
49	0xbdaccee3	-0.08437898
50	0xbe431a32	-0.19052961
51	0x3e34a3ce	0.17640612
52	0x3d43e8be	0.047829382
53	0xbe3a36af	-0.18184923
54	0x3d2a28bf	0.041542765
55	0x3d917922	0.071031824
56	0xbe70f10f	-0.23529457
57	0xbbcf49b0	-0.006325923
58	0xbe3c7955	-0.1840566
59	0x3d3e7a82	0.04650355
60	0xbe01595c	-0.12631744
61	0x3e8d5f1b	0.27611622
62	0xbdc04b30	-0.09389341
63	0xbe1e516c	-0.15460747
64	0xbcb5df95	-0.022201339
65	0xbe8b9015	-0.27258363
66	0xbe5c1cc9	-0.21495356
67	0xbde9c444	-0.11414388
68	0x3e3ec849	0.1863109
69	0xbe87365d	-0.26408663
70	0xbe71179c	-0.23544163
71	0x3e0cfac2	0.13767532
72	0x3af90b09	0.0019000481
73	0x3d3ae9f0	0.045633256
74	0xbd8a5068	-0.067536175
75	0x3d085b34	0.033290103
76	0xbe066eba	-0.13128176
77	0xbe7d4c33	-0.24736099
78	0xbe020d0a	-0.12700287
79	0xbe68b12c	-0.22723836
80	0x3e28e241	0.16492559
81	0x3bc4abeb	0.0060019395
82	0xbe6686c6	-0.2251235
83	0xbdc4ad69	-0.09603388
84	0x3c3070c3	0.010769072
85	0x3df1714c	0.11789188
86	0x3dc361b6	0.09540121
87	0xbe6f94cf	-0.2339661
88	0x3e88022c	0.26564157
89	0xbe869f14	-0.26293242
90	0xbe8ca6ea	-0.27471095
91	0x3e280cb4	0.16411096
92	0x3e23755a	0.15962735
93	0x3e359552	0.17732742
94	0x3dbe5687	0.092938475
95	0xbe0088b1	-0.12552144
96	0x3e41e9da	0.18936864
97	0x3db8029d	0.089848734
98	0x3d87ffec	0.0664061
99	0xbdd0cd74	-0.10195437
100	0xbe362f45	-0.1779147
101	0xbe04f9ba	-0.12985888
102	0x3d463d94	0.04839857
103	0x3e143c69	0.1447617
104	0xbca18dcd	-0.019720936
105	0x3e0e1007	0.13873301
106	0xbe406330	-0.18787837
107	0x3e6a0d99	0.2285675
108	0xbb0f8884	-0.0021901438
109	0xbe819094	-0.25305617
110	0xbe078186	-0.13233003
111	0xbd387c84	-0.045040622
112	0xbdec560b	-0.11539849
113	0x3e63ada2	0.22234204
114	0x3dabd159	0.08389539
115	0x3e42c866	0.19021758
116	0xbe84b30f	-0.2591786
117	0x3e205568	0.1565758
118	0x3d7b99cf	0.06142598
119	0x3d79d53c	0.06099437
120	0xbc16bf6d	-0.009200913
121	0x3e4b8256	0.19873938
122	0x3decda62	0.11565091
123	0xbe254bcc	-0.16142195
124	0x3e261efc	0.16222757
125	0x3deb010d	0.1147481
126	0x3e18df1a	0.14928856
127	0xbdcc3989	-0.099719115

fc2.weight f4 [64, 128]
0	0x3d12df94	0.035857752
1	0x3d8ae681	0.067822464
2	0xbdf9d2c2	-0.12198402
3	0x3b27155d	0.0025494911
4	0x3e72d240	0.23713017
5	0xbda9e450	-0.082955
6	0xbcce5f33	-0.025191879
7	0x3c80ee1c	0.01573854
8	0xbd9edcc2	-0.0775695
9	0xbc0af7f3	-0.008481967
10	0xbcdf7b38	-0.027280435
11	0xbdca541c	-0.09879324
12	0xbd6cd889	-0.05782369
13	0x3e0dcd7f	0.13847922
14	0xbd4c0a29	-0.049814377
15	0x3e1882ac	0.14893597
16	0xbd9f1704	-0.07768062
17	0x3c997c4f	0.018736033
18	0x3b7d5f6e	0.0038661617
19	0x3cc6ad59	0.02425258
20	0x3d2119ba	0.039331175
21	0xbd8ae34e	-0.06781636
22	0xbd8b01de	-0.067874655
23	0x3dc540d3	0.09631505
24	0xbdac6e99	-0.08419532
25	0x3b578573	0.0032885938
26	0x3cf8c5de	0.030367788
27	0xbd12384d	-0.035698224
28	0x3d559487	0.0521436
29	0x3d25eebf	0.04051089
30	0x3d3c918c	0.04603724
31	0xbdb12e25	-0.086513795
32	0x3d839250	0.06424391
33	0xbda582b0	-0.08081567
34	0x3a6bd520	0.00089962967
35	0x3c90e78a	0.017688531
36	0xbd2e9712	-0.04262454
37	0xbdaf5750	-0.085615754
38	0xbb80b61d	-0.0039279596
39	0xbd45bff2	-0.048278756
40	0x3d95f47e	0.07322024
41	0x3d847881	0.06468297
42	0xbccad4b4	-0.024759628
43	0x3d02a9c5	0.031900186
44	0xbda36330	-0.07977903
45	0x3daf6d8b	0.085658155
46	0x3d131b36	0.035914622
47	0x3d61f283	0.055162918
48	0x3d62666c	0.05527346
49	0xbd80f238	-0.062961996
50	0x3da98ed6	0.08279197
51	0x3dbe5a0d	0.092945196
52	0xbd1bc026	-0.038025044
53	0x3db3041c	0.08741018
54	0xbc64dbf3	-0.013968456
55	0xbd4c8e7a	-0.049940564
56	0x3da8cfc4	0.08242753
57	0x3d1111e5	0.035417456
58	0x3d4fc7f1	0.05072779
59	0xbe053f5c	-0.13012451
60	0x3db46067	0.0880745
61	0x3c08c127	0.008346832
62	0xbe115bb3	-0.14195137
63	0x3d3a499f	0.045480367
64	0x3dd01d51	0.10161842
65	0xbd93aebd	-0.07211063
66	0x3d895cfc	0.067071885
67	0x3c941f7f	0.018081425
68	0x3dcb9ca3	0.099419855
69	0x3cd84698	0.02640085
70	0xbe09ed7e	-0.13469502
71	0xbc22d6f6	-0.009938946
72	0x3db4191f	0.08793854
73	0xbb4dc28d	-0.003139648
74	0x3e4e49fa	0.20145407
75	0x3e5afe5d	0.21386094
76	0x3cbffb04	0.023435123
77	0xbe31b150	-0.17352796
78	0xbdb2f3f5	-0.08737937
79	0x3dbbbde8	0.09167081
80	0xb97838b4	-0.00023672247
81	0xbcc46eb2	-0.023978565
82	0xbd9d324a	-0.076756075
83	0x3d93b250	0.07211745
84	0xbd39947e	-0.04530763
85	0x3e48f3aa	0.196242
86	0x3d627799	0.05528984
87	0xbd958b36	-0.07301943
88	0x3d6505cb	0.055913728
89	0xbdd1670e	-0.10224734
90	0x3d020a1d	0.031747926
91	0xbd33d934	-0.043908313
92	0x3db06ff8	0.08615106
93	0x3c815709	0.015788572
94	0x3d50877e	0.050910465
95	0xbdb5d2c2	-0.088780895
96	0xbc5d472d	-0.013505739
97	0xbda20a1f	-0.07912087
98	0xbb515c48	-0.0031945873
99	0xbdbb907f	-0.0915842
100	0x3d33e313	0.043917727
101	0x3d8c8222	0.06860758
102	0x3d851961	0.06498981
103	0xbda8ca16	-0.0824167
104	0x3d47def4	0.04879661
105	0xbe15c794	-0.14626914
106	0xbd842dbc	-0.06454036
107	0x3cc11797	0.023570819
108	0x3ce8a406	0.028398525
109	0xbda84d69	-0.0821789
110	0x3d2b21a8	0.041780144
111	0x3d577756	0.052604042
112	0xbd8ed46e	-0.069741115
113	0xbd460d82	-0.048352726
114	0xbd0cc2b4	-0.03436537
115	0x3cc8a36d	0.02449199
116	0xbd9559dc	-0.0729253
117	0x3d5162fd	0.051119793
118	0xbc7e9f1f	-0.015540867
119	0x3ccd497f	0.02505946
120	0x3d708f05	0.058730144
121	0x3d28131f	0.04103386
122	0xbd2045e6	-0.03912916
123	0x3dad18e0	0.0845201
124	0x3d9299b8	0.07158226
125	0xbe194583	-0.14967923
126	0xbbd9f8bf	-0.0066519673
127	0xbd2b700f	-0.041854914
128	0xbda61576	-0.08109562
129	0x3c16b2c6	0.009197896
130	0x3ceef83a	0.029171098
131	0x3cbd6cb8	0.02312313
132	0xbd6d73e4	-0.05797185
133	0x3d74e410	0.05978781
134	0x3d6a4ed1	0.05720407
135	0xbda1991f	-0.07890534
136	0x3cc1b5d1	0.023646267
137	0xbd4c4d4f	-0.049878415
138	0xbda54605	-0.08069996
139	0x3d43f649	0.047842298
140	0x3d4c4b05	0.04987623
141	0x3da63765	0.081160344
142	0xbd86c3d7	-0.06580322
143	0x3da19df3	0.078914545
144	0x3d7bb0c6	0.06144788
145	0xbd114c7d	-0.035473336
146	0xbd8c4ccb	-0.068505846
147	0xbd1069aa	-0.03525702
148	0xbcb53174	-0.022118308
149	0x3cb50f9a	0.022102166
150	0xbd859c86	-0.06523995
151	0x3b790ec2	0.003800318
152	0xbd87bc51	-0.066277154
153	0xbd8171a0	-0.063205004
154	0xbd9f8962	-0.077898756
155	0xbcd5ab26	-0.026082586
156	0xbce80065	-0.0283205
157	0x3cb43367	0.021997167
158	0x3d084e37	0.033277716
159	0x3d0db026	0.034591816
160	0x3d052e29	0.032514725
161	0xbcdce612	-0.026965175
162	0x3d920845	0.071304835
163	0x3c7b0d6c	0.015323024
164	0x3d503eca	0.05084113
165	0x3d409426	0.047016285
166	0xbc9e70c5	-0.019340882
167	0xbd08d1a1	-0.033403043
168	0xbd896919	-0.06709499
169	0x3b70b0c1	0.0036726447
170	0x3d2872d4	0.041125134
171	0x3d23547c	0.039875492
172	0x3cc60b45	0.024175296
173	0x3cfe9175	0.031075219
174	0xbbf36bfe	-0.007428645
175	0xbcf13f20	-0.029449046
176	0xbd9f3db9	-0.077754445
177	0xbd189cb8	-0.037258834
178	0xbc880d84	-0.016608007
179	0x3dae2ae9	0.08504278
180	0x3d93e1b5	0.072207846
181	0xbc79ab34	-0.015238572
182	0x3d3a224a	0.045442857
183	0xbd12210d	-0.03567605
184	0x3d5217cd	0.05129223
185	0x3cfbbfe6	0.030731153
186	0xbd8c0c7f	-0.06838321
187	0xbd25421f	-0.04034626
188	0x3d73e83f	0.05954766
189	0x3d9a6767	0.07539254
190	0xb9dd3dd7	-0.0004219848
191	0xbbffd73c	-0.0078076404
192	0x3da2d845	0.079514064
193	0x3d853ef5	0.06506149
194	0x3d032275	0.032015283
195	0x3c942606	0.018084537
196	0x3cf6c6e3	0.030124133
197	0xbcb358aa	-0.021892864
198	0x3d0c2181	0.03421164
199	0x3ca8a029	0.020584183
200	0x3d6bde28	0.05758491
201	0xbd9d5abd	-0.076833226
202	0x3b177633	0.0023111224
203	0xbb5b08dc	-0.0033422029
204	0x3d9fb2a7	0.07797747
205	0xbd9fcbdc	-0.07802555
206	0xbdb469b9	-0.088092275
207	0x3bd494cb	0.006487464
208	0xbd7e6aad	-0.062113453
209	0xbcebcf1e	-0.028785285
210	0x3d77a592	0.060460635
211	0xbcb76a47	-0.022389544
212	0x3bf517b4	0.0074796323
213	0xbd0c5c97	-0.034267988
214	0x3d775868	0.060387045
215	0x3cbcfe4d	0.023070479
216	0xbd473819	-0.048637483
217	0x3c82cba6	0.015966248
218	0x3cb9e50f	0.022692231
219	0x3c40beb5	0.011764218
220	0xbd1dba54	-0.038507774
221	0x3c93eeb2	0.018058155
222	0xbbb96fb4	-0.005659068
223	0xbd02dfa6	-0.03195157
224	0xbd65cfea	-0.056106485
225	0x3d512617	0.051061716
226	0x3cc21ef5	0.023696402
227	0xbbef74db	-0.0073076314
228	0x3ccb85af	0.024844019
229	0x3d16d27e	0.036821835
230	0xbd90b689	-0.07066066
231	0xbca4d8af	-0.020122854
232	0xbae14965	-0.0017188011
233	0xbc9a372a	-0.018825132
234	0xbd5c9e1f	-0.053861734
235	0xbd68108c	-0.056656405
236	0x3b8430e4	0.0040341485
237	0x3d019d65	0.031644244
238	0x3d8d52c6	0.069005534
239	0xbce89cdd	-0.02839511
240	0xbc92b8f6	-0.017910462
241	0x3b756714	0.0037445473
242	0xbd3d293f	-0.046181913
243	0xbd074e30	-0.03303355
244	0xbd26282f	-0.040565666
245	0xbc952b69	-0.018209176
246	0x3da840c6	0.082154796
247	0xbd93cd98	-0.07216948
248	0xbcbbe178	-0.02293466
249	0xbd0ed7e8	-0.034873873
250	0xbd9602b3	-0.073247336
251	0x3d52d91e	0.05147659
252	0x3d11263b	0.03543685
253	0xbb91fa54	-0.0044548903
254	0x3d8cb1a9	0.068698235
255	0xbdae27af	-0.08503663

fc2.bias f4 [64]
0	0x3d490698	0.049078554
1	0x3ce765c2	0.028246764
2	0xbd2cbb2d	-0.042170692
3	0x3d911f39	0.070860334
4	0xbd4ba5a4	-0.049718514
5	0xbd8f8080	-0.07006931
6	0x3d37c5f1	0.044866506
7	0xbd53c19b	-0.05169831
8	0xbd0253ae	-0.031818084
9	0x3d8feac6	0.07027201
10	0xbd6049e2	-0.05475796
11	0xbda1e464	-0.0790489
12	0xbd85464b	-0.06507548
13	0x3db0ffbd	0.08642528
14	0xbd1914b3	-0.037373256
15	0x3d578a22	0.052621968
16	0x3db08335	0.08618776
17	0xbd808977	-0.06276219
18	0xbdb416d7	-0.08793419
19	0x3d253e89	0.04034284
20	0xbcd887f0	-0.026432008
21	0xbc835d42	-0.01603568
22	0xbdae6621	-0.08515573
23	0xbcd4053b	-0.0258814
24	0x3c889f5f	0.016677557
25	0x3b27b97e	0.002559274
26	0xbdc53793	-0.096297406
27	0x3c80cc5f	0.015722452
28	0x3dc0a48d	0.094063856
29	0x3dcdf968	0.10057336
30	0x3d2c5aa2	0.04207862
31	0xbae738bc	-0.001764081
32	0xbc5d5d66	-0.013511037
33	0xbcc80b3c	-0.02441942
34	0xbd9263a2	-0.0714791
35	0xbcf09fda	-0.029373098
36	0xbd34e3e0	-0.04416263
37	0x3d50e04c	0.050995156
38	0xbd842305	-0.06451992
39	0xbd535726	-0.051596783
40	0x3cd83631	0.026393028
41	0x3cbf0266	0.023316573
42	0xbcf799ea	-0.03022476
43	0xbcc3aefc	-0.02388715
44	0x3d2d8f31	0.042372886
45	0xbc20036d	-0.009766442
46	0xbcb313be	-0.02186
47	0x3c71cf86	0.01475895
48	0x3d1786b5	0.0369937
49	0x3d3a9772	0.045554586
50	0xbb2a00d5	-0.0025940437
51	0x3c070ff2	0.008243548
52	0xbcfc7223	-0.030816143
53	0xbc90f874	-0.017696597
54	0x3d251193	0.040299963
55	0xbd2e518b	-0.042558234
56	0x3c83fde1	0.01611227
57	0x3da66be8	0.0812605
58	0x3d827fdb	0.06372043
59	0x3d9c0503	0.076181434
60	0xbd0645f9	-0.032781575
61	0x3da55c10	0.080742
62	0x3cf985c6	0.030459296
63	0xbd50f56d	-0.051015306

fc3.weight f4 [2, 64]
0	0xbdc7b80f	-0.09751903
1	0x3d0fbea8	0.035093933
2	0xbdbf7dde	-0.09350179
3	0x3d6eb514	0.05827816
4	0xbe25d5bc	-0.16194814
5	0x3c24e820	0.010065109
6	0x3d8f7305	0.0700436
7	0x3dc0dd77	0.09417241
8	0x3d92e52c	0.07172617
9	0xbdfa9729	-0.12235863
10	0xbd6b4590	-0.057439387
11	0xbdc79a68	-0.097462475
12	0x3dcfcf1c	0.10146925
13	0xbdf83eef	-0.12121379
14	0x3cded2fd	0.027200216
15	0x3c9ce144	0.019150384
16	0xbddba2d5	-0.10724417
17	0x3ddcdf0e	0.10784732
18	0x3db23117	0.087007694
19	0xbdf9e665	-0.122021474
20	0x3e194015	0.14965852
21	0x3daac2f9	0.08337969
22	0x3d566fd0	0.052352726
23	0xbc49a9e2	-0.01230857
24	0xbd08f54b	-0.033437055
25	0xbc8c0089	-0.017090099
26	0xbdcd4f92	-0.100249425
27	0x3e1a0d8a	0.15044227
28	0xbd8ffd93	-0.07030787
29	0xbe1e11be	-0.15436456
30	0xbd3a02c7	-0.045412805
31	0x3e2d32ec	0.16913956
32	0xbd97b0fe	-0.074068055
33	0x3cb2a528	0.021807268
34	0xbd1bbdec	-0.03802292
35	0x3de51cb2	0.11187114
36	0x3e2132eb	0.1574208
37	0xbcce6c25	-0.025198052
38	0x3db4e4ab	0.088326775
39	0x3e0ec611	0.13942744
40	0xbda8421d	-0.08215735
41	0xbcf69cb8	-0.030104026
42	0x3d27cb88	0.040965587
43	0xbc769d6d	-0.015052182
44	0x3db3cb93	0.08779063
45	0x3e0e5c82	0.13902476
46	0x3cd81dab	0.026381334
47	0xbdb9e09c	-0.09076044
48	0x3df303c7	0.11865955
49	0x3d132a93	0.035929274
50	0x3dd33d62	0.10314442
51	0xbe231fb6	-0.15930066
52	0xbe18b72f	-0.14913629
53	0xbdf4e01a	-0.119568065
54	0x3dc47b5a	0.0959384
55	0xbd171da4	-0.036893502
56	0xbd66ad7b	-0.056317788
57	0xbd9f59c2	-0.07780792
58	0xbd6cf720	-0.057852864
59	0x3e27d402	0.16389468
60	0xbdba409c	-0.090943545
61	0xbc1c24c4	-0.00953025
62	0xbdb2819a	-0.08716126
63	0x3cbb360e	0.022852924
64	0x3e0f13b1	0.13972355
65	0x3c183500	0.00928998
66	0x3ddd984a	0.108200625
67	0xbe22f23f	-0.15912722
68	0x3e046b1d	0.12931485
69	0x3bc76700	0.0060852766
70	0xbda6ceed	-0.08144937
71	0xbdb2be5b	-0.08727714
72	0xbdbfd41c	-0.093666285
73	0x3e28251b	0.16420405
74	0x3e0afcdd	0.13573022
75	0xbdaa09ea	-0.08302672
76	0xbdc15c47	-0.09441429
77	0x3d98fe84	0.0747042
78	0xbdee6f55	-0.11642329
79	0xbc2ebb65	-0.0106647955
80	0x3e0be5bb	0.13661854
81	0x3d31385f	0.04326665
82	0x3d823d53	0.06359353
83	0x3e0bdf30	0.13659358
84	0xbd5b2be3	-0.05350865
85	0xbd977319	-0.07395
86	0xbd0226f4	-0.03177543
87	0xbd1bf6f1	-0.0380773
88	0x3dec890b	0.11549576
89	0x3e17721b	0.14789622
90	0x3dcf22a0	0.10114026
91	0xbd25a8cc	-0.04044418
92	0x3dd99ac3	0.106252216
93	0x3df6dc6b	0.1205376
94	0x3e2326af	0.15932725
95	0xbd9db5ee	-0.07700716
96	0xbe160f74	-0.14654332
97	0x3d8a949c	0.06766626
98	0xbbd10540	-0.0063787997
99	0xbc871419	-0.016489075
100	0xbe478ee8	-0.19488108
101	0xbe10ca84	-0.14139754
102	0xbdf840f6	-0.12121765
103	0xbd4bd7ac	-0.049766228
104	0x3d7e6123	0.062104356
105	0x3d9b9630	0.07597005
106	0xbd4361a0	-0.047700524
107	0x3deb3659	0.11484975
108	0xbdc54a2e	-0.09633289
109	0xbd074eef	-0.03303426
110	0xbdcd0da3	-0.100123666
111	0x3d3af5b8	0.045644492
112	0xbdc2249d	-0.0947964
113	0xbdbbcd6e	-0.09170042
114	0x3df3da30	0.1190685
115	0x3da45db5	0.08025686
116	0x3bd8de2e	0.0066182828
117	0xbde43798	-0.11143416
118	0xbd57f6d6	-0.052725635
119	0xbd3a3760	-0.045462966
120	0x3d24e3cd	0.04025631
121	0x3defbcb3	0.117059134
122	0x3dd294c7	0.10282283
123	0xbc8a5d99	-0.016890334
124	0xbc0ccb40	-0.00859338
125	0x3e09fd1a	0.13475457
126	0x3d990fe3	0.07473733
127	0xbe26744b	-0.162553

fc3.bias f4 [2]
0	0xbd1c3d3b	-0.03814433
1	0xbc4959cd	-0.012289477
